model/keypoint_classifier/keypoint_classifier.tflite (tflite, 7028 bytes, 6 tensors)

sequential/dense/BiasAdd/ReadVariableOp f4 [20]
00000000: c3db 2d3f 71bc c0be 8895 80bf 9a76 9bbf
00000010: be89 983e 7cdc 2cbf 7a47 3bbf 6f7a d0bd
00000020: e654 bdbe 6808 0ebf 02dd 46bf 1c6d e13e
00000030: 8a42 e7be a261 cc3e d135 95bf ef7f 543c
00000040: 9671 cabe 251f 57be 652d 2dbe ed63 18bf
0.67913455 -0.3764377 -1.0045633 -1.2145569 0.2979259 -0.6752393 -0.7315594 -0.10179602
-0.36978835 -0.55481577 -0.7768098 0.44028556 -0.45167953 0.39918238 -1.1657048 0.012969955
-0.39539784 -0.21007974 -0.16911848 -0.59527475

sequential/dense_2/BiasAdd/ReadVariableOp f4 [15]
00000000: 6379 b93d 7d2d fdbe 07bb f73e 94dc 4c3f
00000010: e670 c9be b553 97be 8282 bdbe 6087 183f
00000020: fe59 113f fe91 b63e 3613 da3d 7017 fbbe
00000030: d545 65bf 412b f1be f296 9abe
0.09056356 -0.49448767 0.48384878 0.80024076 -0.39343947 -0.2955605 -0.37013632 0.59581566
0.5677794 0.35658258 0.106481954 -0.4904132 -0.8955968 -0.47103313 -0.30193287

sequential/dense_1/BiasAdd/ReadVariableOp f4 [10]
00000000: c478 9b3f 812e ae3f e29b 59be 7eba d33e
00000010: 13d2 573f 11fd 4c3f 6a2b 30bd 296b e93e
00000020: 96ad f9be 6614 533e
1.214623 1.3607942 -0.21250871 0.4135322 0.8430492 0.8007365 -0.043010153 0.4558957
-0.48765248 0.2061325

sequential/dense/MatMul f4 [20, 42]
00000000: d2ea e0bd 9077 13bd 0471 853f e6ad c6be
00000010: 6185 543f b8f0 2cbe e50f 3c3e 20d8 1bbe
00000020: cfa1 a6be 4ca4 3cbe 1d7f 7d3f a79c a9bd
00000030: be37 2e3f 3057 4dbe 8b55 d13e 100f debd
00000040: 06f1 423e ac45 c2bb ec1f 2d3f 4bcb 563d
00000050: 6f17 9a3d b5ec 9ebd 74e4 af3d 39de 98bd
00000060: d72c 36bd cd76 cdbd 2baf ca3e aa95 b73e
00000070: 0db9 42bd 3bbc bf3d a895 31be 34cc 17be
00000080: dcd4 34be edb4 73be f559 b13e 1fdf 343f
00000090: c0e4 b63d 489c d23e 2cab cbbb 3c5e 3d3e
000000a0: 279a 96bd d012 1b3d 8cab 0f3e e2fa 953e
000000b0: a0b2 153e 3bb9 cb3e d62c 06be a0b0 8b3e
000000c0: b6c7 cdbe 7c61 b83e 94fa d0be d2c7 a73e
000000d0: 81b1 8d3e f41a 173e 770e 033c 458f bd3d
000000e0: dc46 28bd 96d9 f23c 6171 c6bc 2f77 22bd
000000f0: e53e 403e 7919 d43d ac6c 86bc 41cb e23d
00000100: a78c 263e 3084 36be 7318 923e 7afd 49bf
00000110: 9f07 df3d c4ef 2d3e 9c9a 11be 92bf e53d
00000120: 96de a13e 5320 b4be dac1 3a3f 545c 86bf
00000130: ce70 6abe 6e21 803e 5d10 52be 4788 5d3e
00000140: 85f5 c1bd 4ddb 0bbe e298 cf3d 3bbd 16bf
00000150: 0245 2d3e 08ad 543d 3424 7d3e efc1 11bf
00000160: 218e 033e 1ccb 38bf 977a 693e 7b2b 8dbf
00000170: ea70 943e cb0d acbe d7bc 73bf a631 dbbd
00000180: db37 a3bd 20c7 acbd 0a1f 6e3d 6b3a c93d
00000190: 23ed d03d 2edf 663e 684e 6ebf 2033 babd
000001a0: 9e9f a53d 1c38 72bd c1cb 083e 8a86 253a
000001b0: 7357 b33d eb33 90bc dd3b 1cbf d9b4 d3bc
000001c0: 6ca8 f33d c9c3 fdbd b0eb 1e3e 8528 43bd
000001d0: 970a ee3d 5831 90bc c1d3 65be 30dc c5bd
000001e0: 70e4 163e c416 cbbd fe64 373d 9b0a d63c
000001f0: 1f19 4d3d 1129 ac3d 3024 7e3d 0232 85bd
00000200: ff99 cbbe 29db 393e 13b9 b3be 1545 78be
00000210: f153 e0be ded6 adbe 82a0 0bbf 08c0 20bf
00000220: 69aa 20bf 0f34 0ebe 46b8 d9bd a868 83bd
00000230: 4d41 2c3e ae52 613d e647 923e 7439 293e
00000240: 9165 f6be 9956 0ebd ee67 50be 5477 25be
00000250: 9c83 c0bc 6288 f3bc 281f 4ebc d1a8 993d
00000260: c2dc 10bf 8897 86bd 7a80 30be ff7b 7cbc
00000270: 602a d53d 0956 b73d 5c4f 693e a0fe b13d
00000280: 09bb 16bf 0550 9cbd 69b6 50be 4363 efbc
00000290: 73d5 d53d a5bf 503d ae54 1b3e 6267 873d
000002a0: a86e 0b3d ba20 323e e41c 83be 9699 b4bc
000002b0: 801f 3ebe b726 8d3d 20cc 6cbe 1296 973d
000002c0: 9fd6 89be 2d97 313e ab9f d8bd 8135 3dbf
000002d0: 3ed2 883e 3684 3fbe 6775 a23e f1f4 533d
000002e0: a815 d93e 9eed b23c a05c 2abc 990e 36bf
000002f0: 8df3 383e 34f4 8b3e 6f56 8f3e 901f df3e
00000300: 3631 873e 5ae5 c93e 9ef2 143e ffc3 08bf
00000310: cf28 2d3e 2973 623e 1275 e53d 3d28 653e
00000320: 7e2c 483e 6ec6 293d 538e a33e 45ba 1ebf
00000330: d125 a53d 89ff ce3d 8b38 e3bc 43c3 143e
00000340: 5802 11be fbc4 3b3d 5453 483e 8247 8b3e
00000350: 50e8 7c3f 1ef8 853e 9d23 533f e655 903d
00000360: d816 2f3f 3dca 1b3d 10a6 213f a35e 823d
00000370: 635d a5be 8bb5 523b 6a08 c6bc 6065 983d
00000380: 2eca 483d ecc3 353d 328d fa3d 1599 d73b
00000390: e800 b4be b095 10bd cb2f 50bd 0151 5d3e
000003a0: a411 803d c4fa 013e 801b ce3d 88b9 bdbd
000003b0: 5208 9cbe 51bc 34bd 0cdc 1dbe 2950 0b3e
000003c0: 1276 91be fa88 8bbc 6102 ccbe 72b1 89be
000003d0: 190a 06be b5e9 2dbd fc57 95be 63fa c93c
000003e0: 76f8 22bf 0671 efbd e655 64bf 486a 01bf
000003f0: 39ce 52be 3638 e3bd 833d 18bd c43b 59bd
-0.109822884 -0.036002696 1.0425115 -0.3880455 0.8301602 -0.16888702 0.18365438 -0.15219164
-0.32545325 -0.1842205 0.99022084 -0.08281832 0.68053806 -0.2005279 0.40885577 -0.10842717
0.19037256 -0.0059287157 0.67626834 0.05243997 0.07524001 -0.07759992 0.08588496 -0.074642606
-0.044476356 -0.10032425 0.39586768 0.35856372 -0.04753976 0.09362074 -0.17342246 -0.14823991
-0.17659324 -0.23799486 0.34638944 0.70652956 0.08930349 0.41134858 -0.0062154736 0.18492979
-0.07353621 0.037859738 0.14030284 0.2929297 0.14618921 0.39789757 -0.13103041 0.27283192
-0.4019143 0.36011875 -0.40816176 0.32769638 0.27674487 0.14756376 0.007999054 0.09255842
-0.0410832 0.029644769 -0.024223985 -0.039664444 0.18773992 0.10356421 -0.01640924 0.11073924
0.16264592 -0.17823863 0.28534278 -0.789024 0.108901255 0.16985995 -0.14219135 0.1121818
0.31615132 -0.3518091 0.72952044 -1.0496926 -0.22894594 0.25025505 -0.20514055 0.21634017
-0.09470657 -0.13657875 0.10136582 -0.5888249 0.16920856 0.051922828 0.24720842 -0.56936544
0.12847187 -0.7218492 0.2280067 -1.1028894 0.28992397 -0.33604273 -0.9521002 -0.10702829
-0.07969638 -0.084364176 0.05813507 0.098255955 0.1020148 0.22546074 -0.9308839 -0.090917826
0.08087085 -0.05913554 0.13358976 0.00063142984 0.08756914 -0.017602881 -0.61028844 -0.02584307
0.11897358 -0.12390859 0.15519595 -0.047646064 0.116231136 -0.017601654 -0.22444059 -0.09661138
0.1473558 -0.099164516 0.044774048 0.026128104 0.050072785 0.0840627 0.06204623 -0.06503679
-0.39765927 0.18150009 -0.35102138 -0.24245103 -0.43814042 -0.33952993 -0.5454179 -0.62793016
-0.62760025 -0.13887046 -0.106308505 -0.06416446 0.16821785 0.05501049 0.2857048 0.16525823
-0.48124364 -0.034750555 -0.20352146 -0.16158801 -0.023500256 -0.029728118 -0.01258067 0.07502902
-0.5658685 -0.06571871 -0.1723651 -0.015410422 0.10408473 0.08951957 0.2278418 0.08691144
-0.58879143 -0.0763245 -0.20382084 -0.029222136 0.10441103 0.050964016 0.15169021 0.066115156
0.034041077 0.17395297 -0.2560798 -0.022045892 -0.18566704 0.0689215 -0.23124743 0.074016705
-0.26921555 0.17342825 -0.10577329 -0.73909765 0.26722902 -0.18702778 0.31730196 0.051747266
0.42399335 0.02184182 -0.01039806 -0.71116024 0.18061657 0.2733475 0.2799563 0.43578768
0.26404732 0.39432794 0.14545676 -0.53424066 0.16910098 0.22114243 0.1120397 0.22378631
0.19548222 0.041449003 0.31944522 -0.62002975 0.080638535 0.10107333 -0.027736923 0.14527611
-0.1416105 0.045842152 0.19563037 0.27202994 0.9879198 0.2616586 0.82476217 0.07047634
0.6839423 0.038034666 0.63144016 0.06365707 -0.3229781 0.0032151665 -0.024173934 0.07441211
0.04902094 0.0443763 0.12233962 0.006579528 -0.3515694 -0.035299003 -0.05082683 0.21612932
0.06253365 0.12693316 0.10063839 -0.09263903 -0.30475098 -0.044124905 -0.15415972 0.13604797
-0.28410393 -0.017033089 -0.39845565 -0.26893193 -0.1308979 -0.04245921 -0.2916869 0.024655527
-0.6366037 -0.116914794 -0.8919357 -0.505528 -0.2058648 -0.11094706 -0.037168037 -0.053035513

sequential/dense_1/MatMul f4 [10, 20]
00000000: 0fbc 133e d4ee 6d3e b297 9b3e b54c c83d
00000010: 109a 363d 89fe d4bd b554 863e 14f1 073f
00000020: 76d2 9bbe 8fdf 18bf 01e5 1ebf 5ebb d63e
00000030: b4d2 bf3d 90c6 b63e 14cd abbe 4a69 d23e
00000040: 0429 963e 70b8 22be 8ca9 b0be 1705 3f3e
00000050: 9c21 f5be ead0 eabd 4f98 113f 4445 c33d
00000060: 30ac 81be a1d7 e0bd 59a9 e5be 7d20 b5bc
00000070: a533 3e3f 9220 693e 6ca9 80bd ce2a b4bd
00000080: 59f8 4dbe 9296 e3bb 7e64 0abe 47b7 833d
00000090: 283c aebf 7c5c 823e 4737 89be 612d 06bf
000000a0: 14bf f13e ad40 603f 90e6 803f 4ab1 8bbc
000000b0: 1dca 5b3e 2481 1a3f 158d b73e 11c4 333f
000000c0: 7d9a 83bd cfb2 df3e 1d01 163f 4959 093f
000000d0: 9d13 5a3f 8ff2 ca3e 73bd cabe b39f 3d3f
000000e0: 77b4 333f 17b6 ea3e 397c 7cbb d049 36bf
000000f0: 259c 453f 031f 88be d6c5 7b3f f488 273f
00000100: ea3d e33e 4103 ba3e dac0 c3bd 6c88 0e3f
00000110: c34b 5d3d 1aa9 11bf 58b5 91be 6238 023f
00000120: c2b1 1a3e 76c4 e23d c110 713f 2bd3 443d
00000130: 66b8 8d3f c392 6b3e e884 3c3e 9c11 813f
00000140: 8349 3dbd 2cfc c2be ae7c c43e 301e 4a3f
00000150: fa94 a4bc 7e9f 7d3f e3e9 473f 396c a53d
00000160: 3eb9 e83d a163 e03e bded f53d 351b ad3c
00000170: 627f febe 8c70 96bf 3f24 91be 8704 83bf
00000180: 71f4 263f 30da 073e 4e80 503d d655 8fbd
00000190: 2cc7 743e 7cce 41bd 95e4 cd3c c61a 58be
000001a0: 9446 6b3f f71b 023f c0e7 f7be 8c5c 813d
000001b0: de9e 403f cb66 14be 846d 5a3e 1d4e d93e
000001c0: 93bf 443f 60a1 883e 5f09 26be 09ec d13a
000001d0: f288 a03d d2b9 343f 29fa 4a3f 6cc7 6bbe
000001e0: 8abd 8dbe b753 00bd 64d6 603f dde6 373e
000001f0: dc99 cb3e 92bb 733f 1270 423f 646b eb3e
00000200: 312e aa3f c316 7a3e cf2f 513f 6da7 e1be
00000210: 831f 2cbf 83db 503e 00d3 833f 86a4 be3d
00000220: 2f3d 3d3e f4cb 10be 4ae6 71be b905 e83e
00000230: 974e bcbe 557d 2bbd 5ecb e3bf b5e6 aa3b
00000240: 33d6 0d3f d235 25be bedd ffbd e575 7abf
00000250: d755 bb3e 4c9d 5f3d 3423 613e 43c0 9abd
00000260: 0bff 603f 95f8 9a3e fa81 f23e 5305 7c3e
00000270: ceb6 62bf 8676 713f 6efa 803f bdd7 353e
00000280: 8040 3dbe 89ac da3d 7c16 563e 4bd9 9e3f
00000290: 1394 c8bd f02f eb3e d7a1 96be 07d1 b63b
000002a0: c233 de3d 2be6 e13d 56f9 253e 0818 a83e
000002b0: ab0a f3bd 1da0 c13b 55bb 563d 0dbc 3a3e
000002c0: 2854 563f c4d5 9b3e 348a 903e 8989 873e
000002d0: 9e36 1d3e a732 913f a118 073d d4a3 c0bc
000002e0: ad3e 413f 7c98 283e 8aeb 323f 37e1 8cbd
000002f0: 5a6b a03d f232 093f bb64 7d3f 74b9 0f3e
00000300: 19f8 823f 0d0f 573f 90a3 bb3f 56c3 5c3f
00000310: f70b 9ebe e4fc df3e ed3b d13e 1516 833f
0.14427207 0.23235637 0.30389172 0.09780256 0.04458052 -0.10400111 0.262365 0.5310223
-0.30434006 -0.59716123 -0.6206818 0.41939825 0.0936636 0.35698366 -0.335549 0.41095954
0.29328167 -0.1589067 -0.34504354 0.18654285 -0.47877204 -0.114656284 0.5687303 0.09534696
-0.2532668 -0.10978628 -0.44855765 -0.022110218 0.74297553 0.22766331 -0.06282315 -0.08797227
-0.20114268 -0.0069454396 -0.13514897 0.06431442 -1.3612108 0.25461185 -0.26799986 -0.5241299
0.47216094 0.8759869 1.0070362 -0.017052311 0.21463819 0.603533 0.35849825 0.7022105
-0.06425951 0.43691108 0.5859545 0.53651863 0.8518618 0.39638183 -0.39597663 0.74071807
0.7019724 0.4584205 -0.003852619 -0.7120638 0.7719138 -0.2658616 0.9834875 0.6544335
0.44383174 0.36330608 -0.09558268 0.55676913 0.05402733 -0.56898654 -0.28458667 0.50867283
0.15106872 0.11072628 0.9416619 0.048052948 1.1071899 0.23005204 0.18410075 1.0083499
-0.046212684 -0.38083017 0.38376373 0.7895231 -0.020090569 0.9907149 0.7809126 0.080772825
0.11363457 0.4382601 0.120082356 0.021131137 -0.4970656 -1.1753097 -0.28347966 -1.0235757
0.6521674 0.13266826 0.05090361 -0.06998794 0.23904103 -0.04731606 0.02513341 -0.21103963
0.9190457 0.5082392 -0.48419 0.0631648 0.7524241 -0.14492337 0.2133084 0.42442408
0.7685482 0.2668562 -0.16214512 0.0016015779 0.0783862 0.7059604 0.79287964 -0.23025292
-0.2768367 -0.031329837 0.87827134 0.17959161 0.39765823 0.95208085 0.75952256 0.4598037
1.3295346 0.24422745 0.81713575 -0.44073048 -0.67235583 0.20396237 1.0298767 0.09308724
0.18480371 -0.14140302 -0.23623005 0.45316866 -0.3677871 -0.041867573 -1.7796438 0.0052154907
0.5540497 -0.16133812 -0.12493466 -0.9783614 0.36588928 0.05459337 0.21986085 -0.07556202
0.87889165 0.30267778 0.4736479 0.24611406 -0.8856019 0.9432148 1.0076425 0.17758079
-0.18481636 0.1067744 0.20907015 1.2410063 -0.09793868 0.4593501 -0.2942035 0.005579117
0.10849716 0.11030229 0.16208395 0.32830834 -0.11867269 0.0059089796 0.052424747 0.18235798
0.8372216 0.30436528 0.2823044 0.26472118 0.15352866 1.1343583 0.032982472 -0.02351562
0.7548626 0.16464418 0.69890654 -0.06878894 0.07832976 0.5359336 0.9898183 0.14035589
1.0231963 0.8400734 1.465929 0.8623556 -0.30868503 0.43747628 0.40866032 1.0241114

sequential/dense_2/MatMul f4 [15, 10]
00000000: 3158 8abd 1e47 8dbf 7e60 5c3f 816c e5bd
00000010: 417b 903e e9d7 b43e 1b6b d1be 0e31 8bbd
00000020: 1299 f4be 3312 4a3e 861b 18be 6f3c 6ebe
00000030: 5738 be3c 89b5 453f 382e 04bf 759e 453e
00000040: eb13 cfbd fe7b 44be eea8 f83e ad94 993e
00000050: d661 133f dd3d 363d 28b9 02bf e094 273f
00000060: 53ad 95bf 6673 503f 5385 b0be d68b ab3d
00000070: 121c efbe f422 c6be 6cea f23d 9d79 243f
00000080: d8a0 81bf a0d1 9ebd be80 273f 1131 69bf
00000090: 2adc 3fbf 1f77 67bf 42c6 fabe 5d3a 3ebe
000000a0: 8820 2fbf 9b0b 9dbe c451 83be d970 3cbf
000000b0: d2d6 3e3e 60f8 21be ef7f 13bf b31b 203f
000000c0: 175f a5bb ebaf dd3e 88ae 3c3f f20e 52bf
000000d0: 8721 2fbd 602f 4e3f 06b7 85be d901 81bf
000000e0: fa14 1abf a739 1bbf 6bec 7b3d 814f 363e
000000f0: 5729 ac3d b2a4 c2be 9e23 28be 5331 443e
00000100: 0edd 403e d348 35bf 0db8 483f 6a46 06bf
00000110: c686 553e cefb 9fbf e993 cabd d486 cd3d
00000120: f06a 933e 2053 4dbf 00e0 9ebf 17fc 5bbf
00000130: 0035 043f 56a8 4ebf ade7 c9bf e0f3 f93e
00000140: 9760 36be 2ee2 71bf 3082 51be faf7 34bf
00000150: 4a6a 2ebf a94f 89bf 679d 68be 3958 1f3f
00000160: 3aaf 1cbf 3def 6a3f a5da 5d3e a9a6 d43e
00000170: 74a2 9c3e 9ac0 47be d36e dcbf b9f4 023f
00000180: 032f c1be fcdf 65bf 4fd1 2fbf d81b 87be
00000190: 63a6 bcbf 7b02 793f 48a8 6cbf 9ce5 41bf
000001a0: f160 103f 0028 4e3e 2d31 97bf 9f98 fd3e
000001b0: c3b1 c23e a5ac 6cbf b14e bdbe 4a4b 10bf
000001c0: 5cf6 753e e6c4 69bd b073 c83e 792c 04bf
000001d0: c678 283f c842 9cbf c38a 57be 92b2 3cbf
000001e0: 2d0e 1abe 80d2 72bf d9d7 133f 2840 cabd
000001f0: b845 133e 4b72 10bf 6265 b93d 08ce 87bf
00000200: 8f0b 0a3f 3cb3 d63d 1719 12bf 90b6 5fbf
00000210: 9c35 93bf bb2e dabe 1825 8e3e da34 9abe
00000220: 75df 4b3f bcc5 03bf cf7c 943e fc5c c73e
00000230: 9285 2cbd 4ac2 81bf c5f8 febe 5a24 ad3e
00000240: 77ba 5fbf 6316 0bbf 5371 da3e f744 c5bd
00000250: acd4 1dbe 9131 f03e
-0.067551024 -1.1037328 0.86084735 -0.11202336 0.28219035 0.35320976 -0.40902027 -0.06796466
-0.47773033 0.19733505 -0.1485425 -0.23265241 0.023220224 0.77230126 -0.51633024 0.19298728
-0.10111221 -0.19187924 0.48566383 0.29996243 0.5757116 0.04449259 -0.51063776 0.6546154
-1.1693519 0.81426084 -0.34476718 0.08376281 -0.46701103 -0.38698542 0.11861119 0.6424807
-1.0127211 -0.077548265 0.6543082 -0.91090494 -0.7494532 -0.9041614 -0.48979384 -0.18576951
-0.68409014 -0.30672917 -0.2564832 -0.7360969 0.18636635 -0.15817404 -0.57617086 0.62542266
-0.005046736 0.43298277 0.73703814 -0.82054055 -0.042756584 0.8054104 -0.26116198 -1.0078689
-0.6018826 -0.60634845 0.061504763 0.17803766 0.084063224 -0.38016278 -0.16419837 0.1915944
0.18834326 -0.70814246 0.7840584 -0.52451193 0.20852193 -1.249872 -0.09891493 0.10035482
0.28792524 -0.80204964 -1.2412109 -0.85931534 0.5164337 -0.8072561 -1.5773827 0.48818874
-0.17810284 -0.9448575 -0.20459819 -0.7069088 -0.68130934 -1.0727435 -0.22716294 0.6224399
-0.61204875 0.917713 0.21665438 0.41533402 0.30592692 -0.19507065 -1.7221321 0.5115467
-0.3773118 -0.897949 -0.68678755 -0.2638843 -1.4738277 0.9726941 -0.92444277 -0.7574098
0.5639792 0.20132446 -1.1811882 0.49530503 0.38026246 -0.92450935 -0.369741 -0.5636488
0.2401976 -0.057072543 0.39150763 -0.5163036 0.65809286 -1.220788 -0.21049027 -0.73709977
-0.1504447 -0.9485245 0.5775123 -0.09875518 0.14382064 -0.564244 0.0905254 -1.0609751
0.53923887 0.10483405 -0.57069534 -0.87387943 -1.1500735 -0.42613778 0.27762675 -0.30118448
0.79637843 -0.51473594 0.2900147 0.3893813 -0.04211957 -1.0137417 -0.4979917 0.33816797
-0.873939 -0.54331034 0.42664585 -0.096322946 -0.15413159 0.46912816
